weights.npy (npy, 60240 bytes, 1 tensors)

array f8 [26, 289]
0	0xbfd7cc95f7939b7a	-0.3718619268169544
1	0xbfe8c98a31f40656	-0.7746020293854581
2	0xbff4d484b94b2380	-1.3018843877818824
3	0xbfece8cbde035965	-0.903417523974707
4	0xbfe59091a8b2415c	-0.6738975806093026
5	0xbfe20f71d4539653	-0.5643853327753255
6	0xbfe313ab503958e2	-0.5961510245204205
7	0xbfdd670d74ea1fbb	-0.45941482942043493
8	0xbfd7e9c9f2f4c081	-0.37364433981111494
9	0xbfda52ab95fbadf5	-0.41129579207219474
10	0xbfe2bb9ace080a20	-0.5854009651232595
11	0xbfdcfa969af6a658	-0.4527946961703484
12	0xbfebbe1d830aee87	-0.8669574317386414
13	0xbfe18ab6bb6f124c	-0.5481828366105872
14	0xbfd272387ca9a9d8	-0.288221475354161
15	0xbfb5a755457158d1	-0.08458455033664626
16	0x3fae3050883e1082	0.058962360983998444
17	0xbfe3f863d2f25700	-0.6240710372973979
18	0xbfe6f8aa0b5bddbd	-0.7178545209744055
19	0xbffb58714c96b0fe	-1.7090924255126647
20	0xbff5586c03282465	-1.3340873835861882
21	0xbfea8d67f2c08259	-0.8297614804506096
22	0xbfe7edfe9d1f823d	-0.7478020733652283
23	0xbf9bcebadd5cb89d	-0.027155799637676215
24	0x3fc695d8f0a9ca79	0.1764479804147248
25	0x3fa8791deed875ad	0.04779904881091155
26	0xbfc2c1d0c785a491	-0.14653978102004264
27	0xbfe2e591133901e2	-0.5905232787554804
28	0xbff21c0cd1249758	-1.131848160709941
29	0xbfeaf3a14acf491b	-0.8422399960639128
30	0xbff02a391ffe0fed	-1.0103083848671262
31	0xbfe04f6091739dc6	-0.5096896019794535
32	0xbfc3d22f24b57a8d	-0.1548518113367731
33	0x3fab01ef60575aba	0.05274913836517699
34	0xbfe76649398b37cb	-0.7312360881712662
35	0xbff52cacd220bf1f	-1.3234070022699098
36	0xbff5e9ba0e4c495d	-1.3695622023120315
37	0xbfee420ae4cbe4d6	-0.9455618351631994
38	0xbfa01475a4cdda6b	-0.031406093948068335
39	0xbfa194d0c6fcd9ba	-0.034338497438898455
40	0x3fd7c3376bec87be	0.3712900690026081
41	0xbfcad296fe17bc1e	-0.209551691120823
42	0x3fd0abbc5c88faa6	0.260481920591625
43	0x3fd181c9489744b9	0.2735465248961862
44	0x3f956edfdb55bb59	0.02093076492513588
45	0xbfd62b2a14c4b0f2	-0.34638454464108215
46	0xbfeea2f9f82d169f	-0.9573945853414506
47	0xbfe2b3330242e07f	-0.5843749088444524
48	0xbfd761d68f5d9e4c	-0.36534656525188747
49	0xbfd2717bd21ef0cd	-0.2881764938317815
50	0xbfb1fa5a9a2c1a77	-0.0702263475796857
51	0xbfeb0c018e9590fe	-0.845215586171008
52	0xbff9738ec8ad3770	-1.590712341206622
53	0xbfe1959dbd751b69	-0.5495136928883372
54	0xbfc3aee7be0d80ff	-0.15377518443984425
55	0x3fb7ca3cd0bf28d2	0.09292965027194391
56	0x3fd79d5982878e1a	0.36897886034987126
57	0x3fe339fb37bdaf40	0.6008277977648291
58	0xbfdab366d636cbaa	-0.4171998111661944
59	0x3fb545fcdcfe83f5	0.08309917827001796
60	0xbfd4ef5b3a21103d	-0.32710915257144163
61	0xbfe189c2d082c783	-0.5480665276029274
62	0xbfd7dd8fa620ab81	-0.37289801810646145
63	0xbfe5a911c6c182d7	-0.6768883592559075
64	0xbfe91858cac35e54	-0.7842220268457347
65	0xbfb56e40f4828e30	-0.08371358842355714
66	0xbfcc1a348571624b	-0.21954971805350207
67	0xbfa2543357fd2ffd	-0.035798649302336095
68	0xbfe526939c5af50e	-0.6609590581717002
69	0xbff79b903bd82a4d	-1.4754793489143083
70	0xbfeaff3a96824a96	-0.8436558665874425
71	0x3fdc194ed53907bf	0.4390446741346032
72	0xbfcc7af716658126	-0.22250259965495295
73	0x3fd239d03a54a7c6	0.2847786492953869
74	0x3fc573eefb009eba	0.16760051017739902
75	0x3fd879501283ac75	0.38240434463541045
76	0x3fe82f39ad4379e5	0.755764807134082
77	0x3fcb16eae0a5a09b	0.21163688630190766
78	0x3fcd9993e34b018d	0.2312493190602364
79	0xbfccbf7379d6f778	-0.2245926232262112
80	0xbfd190538e194b05	-0.2744339835818866
81	0xbfc365bac81efc30	-0.1515420415071005
82	0xbfccbaf2c4d2c498	-0.22445520983231826
83	0xbfcbb9d7afb41cd3	-0.2166089637687266
84	0xbf8b2a73e6c6ca58	-0.013264565925827629
85	0xbfe68758e07b9710	-0.7040218719891715
86	0xbfe40013f16a785f	-0.6250095095781595
87	0xbfbf1a20fbf2b24c	-0.12149244452548053
88	0x3ff0ce9f61f13851	1.0504449678296803
89	0x3fdc6db7a6918fc1	0.44419661776032277
90	0x3fd877c87fd9d6da	0.3823109863800319
91	0x3fc61b3eca95d3d8	0.17270645992144185
92	0x3ff8152bd212c476	1.5051687437046701
93	0x3fe6859a6c996830	0.7038089867667221
94	0x3feb825148d99452	0.8596579001283635
95	0x3fe47716f2a9bbcd	0.639537309600081
96	0x3fe7bcfaefa52176	0.7418188744132255
97	0x3fc51f70c88ae0c2	0.1650219897471797
98	0xbfc0d71c757fc2d5	-0.13156467187174906
99	0xbfd10870c6bd8543	-0.2661401692222009
100	0xbfc5bb247474e6d8	-0.16977363287315117
101	0xbfa714be8ff4067b	-0.04508014209023955
102	0xbfe55cf73dfb018f	-0.6675983629757399
103	0x3fa83d9200893a25	0.047344744267878526
104	0x3fda8d184a5f144d	0.41486174834091544
105	0x3fd50e090bedcf2a	0.3289816490644052
106	0x3fcbd7d97f888078	0.2175247070999864
107	0xbfd49759e36e6000	-0.3217377396590564
108	0xbfd1aa005ea7e89a	-0.27600106471766994
109	0x3fe97c7ceb565eec	0.7964462849076575
110	0x3fb3397618c15b91	0.07509554008843923
111	0xbfb8d4e94554239f	-0.09699876730532118
112	0x3fd3e46f6419eb96	0.3108175733138351
113	0x3fc35b7a3d212a71	0.15122917160836694
114	0x3fc16cd7b8900d30	0.13613411437845846
115	0xbfba21cde73ae2d0	-0.10207831282867663
116	0xbfcce17c37d045bf	-0.22563126302024547
117	0xbfd15bbcfaa36c16	-0.2712242553367913
118	0x3fa24fbfd8d9f481	0.035764689656368816
119	0xbfef1434b2641ec5	-0.9712165340615334
120	0xbfd18f5ec2a56dc4	-0.2743756199685914
121	0x3fdc40c41f7c688e	0.4414530093650989
122	0x3fe433d2d8d74a2d	0.631326125638514
123	0x3fe0e873c403b72d	0.5283755138786767
124	0x3fe11c08e726986c	0.5346722139991136
125	0x3fe32a4b2fd9039d	0.5989128050351727
126	0x3fdf9e61ab553b75	0.49404184085590624
127	0x3ff01fb493df884d	1.007740571622452
128	0x3ff02cc7a3a2943d	1.0109325782771201
129	0x3fea49761f9e7811	0.8214674584921814
130	0x3feff2b9b159eee1	0.9983795608418086
131	0x3fe995bd344e98f9	0.7995286962148206
132	0x3fdbe0feb36c02fa	0.43560760041877666
133	0x3fc656f29551bc44	0.17452842989902895
134	0xbfcea836542ce7f7	-0.23950842962386762
135	0x3fad81d3e84e787d	0.05763113222859404
136	0xbfc0b4ce4ce09d8d	-0.1305177569749784
137	0x3fc895ee9de3adad	0.19207556447450483
138	0x3fe1fa4277fec9cc	0.5617992728860428
139	0x3fd642d5c5e0fede	0.34782928775892497
140	0xbf770278c77a9aa0	-0.005617591661268989
141	0x3fc485582e2520fd	0.1603193497960617
142	0x3fe46b87838d255c	0.6381261414873438
143	0x3fea8d2d9a15a47f	0.8297336587394425
144	0x3ffa6ffe8a559029	1.6523423579865357
145	0x3fef2370a8b4c6d3	0.9730761809389271
146	0x3fe45c370e58265d	0.6362567215121079
147	0x3fe64bb671820723	0.6967422692252722
148	0x3fe489d3655abd72	0.6418244342402615
149	0x3fe908fdf0e0becc	0.7823476509710985
150	0x3fcd1173f82ba747	0.2270951234598277
151	0xbfbad1a3343a3691	-0.10476131463129891
152	0x3fab5a3f3da758d0	0.05342290523155813
153	0x3fd07627093fc946	0.25721145537604106
154	0x3feb5456f8f3120f	0.8540453779501734
155	0x3fc21be4ae30591c	0.14147623544040122
156	0xbfc0621907abe892	-0.12799370646081748
157	0x3fca048fdd1658a4	0.20326422019269785
158	0x3fd0473380066adc	0.25434577467392017
159	0x3fc3acfd96d1aa06	0.15371675361832632
160	0xbfd8334684f86dff	-0.37812960610764884
161	0xbfbe15f1035190d5	-0.11752230006237892
162	0xbfd0e7181b5a2c75	-0.2641048686134078
163	0x3f9da064e366604b	0.028932167415036052
164	0x3fd1a97b1c0254e7	0.2759692929769941
165	0x3fb874c2b11489f0	0.0955316240620403
166	0x3fe0b31b08786c8d	0.5218634763181328
167	0x3fc2c9f783f47513	0.14678853934393796
168	0xbfb59dc5d2d36021	-0.08443867108451332
169	0x3f984be43a570a4a	0.023727003155509054
170	0xbfa4b64ef3196438	-0.04045340268630365
171	0x3fc7f32de6aa560d	0.1871087433143405
172	0xbfe2f09d3cbeefcc	-0.5918718515817942
173	0xbfe492e16d62e88d	-0.6429297577335703
174	0xbfe66a685a22bc2e	-0.7004892120802475
175	0xbfeb81aaf46331d6	-0.8595785878365472
176	0xbff3c23c6448a3cb	-1.2349208752950627
177	0xbfd1ce281308779a	-0.27820779665659645
178	0xbfc68275542364b7	-0.17585627182305583
179	0xbfec08e357e583aa	-0.8760849682549765
180	0xbfe901b8ee9ca232	-0.7814602527988141
181	0xbfd62b02cee6dc58	-0.346375181248225
182	0xbf5d8ac9b1b29194	-0.0018031091374633755
183	0x3fe06e631d99634c	0.5134749963864151
184	0x3fd195f98b2f8ae8	0.27477873413424314
185	0xbfc19e9943a0cc1c	-0.1376525478568461
186	0xbf944cf4e686348f	-0.019824816293795563
187	0xbfd8823fbd4598fc	-0.3829497669561446
188	0xbfd92e4b8b106be4	-0.39345062809451137
189	0xbfe4b129e6e96fa6	-0.646626425742842
190	0xbffa5da282b55d77	-1.6478600602912061
191	0xbff747f163d79600	-1.4550641918261817
192	0xbfe915fc12d2170e	-0.7839336745825862
193	0xbfeda65c5ee8b71b	-0.926557717675425
194	0xbfcbc871d70edde9	-0.21705458641893863
195	0xbfcc97fbb14cb448	-0.22338815839012427
196	0x3fa528e07f6ce614	0.04132749133573213
197	0xbfdd08e98fb4fded	-0.4536689666165035
198	0xbf9cf9cdb40ac344	-0.028296674837011496
199	0xbfbcdab7a86c99a2	-0.11271236287993827
200	0x3fd4e57bd599945a	0.32650657519690685
201	0x3fd4f9cf991ad644	0.3277472491421103
202	0x3fbb07e1372855d1	0.10558898541088203
203	0x3fa6533b3af3801f	0.043603754945934485
204	0xbfdaed27a0fab6a1	-0.4207247802795369
205	0x3fae9a334143ad71	0.05977020427402636
206	0xbfc8a4d91bb2385b	-0.19253076412536782
207	0xbfe21a92140a2b85	-0.5657434836769971
208	0xbff065ab351e40da	-1.0248214793137351
209	0xbfe9a390bee9a91c	-0.8012164810909641
210	0xbff16ec1f3e04fb1	-1.0895404364027679
211	0xbfdafe4d3a0a5337	-0.4217713419723625
212	0xbfe31ec0330e8f02	-0.5975037572102055
213	0x3fc63c08a372f8d2	0.173707084473739
214	0xbfc29d96ab024ce5	-0.1454342207913221
215	0x3fd10495325fe50c	0.2659047119082778
216	0xbfbeb6bbdeeea970	-0.11997579758341259
217	0xbfc4afa5b49ff17b	-0.16161032981461773
218	0xbfaf0bee86be88ce	-0.06063790697887016
219	0xbfbe6fd61aa23e1d	-0.11889398718107498
220	0xbfb18b52f6ce503f	-0.06853216672453842
221	0x3fba0db66eb11e6f	0.10177173807562111
222	0x3fd02c38f339f6c7	0.25269912483768703
223	0xbfa942d817b0b65e	-0.04933810509861013
224	0xbfd78f3885f0348d	-0.3681165035239438
225	0xbfe9424cf99603ee	-0.7893433451391709
226	0xbfe142cd0120a550	-0.5394043943426059
227	0xbfe2c7782f7e9e15	-0.58684930111207
228	0xbfe164a73c0e9fda	-0.5435367749205355
229	0xbfccc4e24baa5bb2	-0.22475842184641476
230	0x3fd8af5d200aa0fc	0.38570335511259635
231	0x3fdd73f5e6aadbac	0.46020267034640017
232	0xbfc823436fd6cfd1	-0.18857615433591815
233	0xbfca5e1a42d7baf9	-0.20599678291133453
234	0xbfb732ca61d7f576	-0.09061875237235548
235	0x3fab4104b582df23	0.05323042598450758
236	0xbf7acc02c7fe85e2	-0.006542216171426559
237	0x3fae6c63f5b4ed9d	0.05942070364332184
238	0xbfb11d33ebabd35c	-0.0668518495911718
239	0x3fb19c590784569c	0.06879192765731051
240	0xbf933d990feefede	-0.018789664838322
241	0xbfa2fbb650ab24aa	-0.03707666144107098
242	0xbfcb2f7d30675f2e	-0.21238674987284284
243	0xbfc7ed5da0c59252	-0.18693132734473977
244	0xbfd2def435df50bb	-0.29485802899331376
245	0xbfc4dfd4170575fe	-0.1630807030114027
246	0xbfcb447c5c681eb0	-0.21302752029463567
247	0x3fbdb49d85f2568e	0.11603722114736056
248	0x3fa6ebb4f03d9a24	0.04476705010056417
249	0xbfc590d01f3a1fdf	-0.1684818413234543
250	0xbfa9d1ce31c2ddda	-0.05042881352840896
251	0xbfa50812e67a6de6	-0.041077223429251394
252	0x3fb536adef5e97c3	0.08286559194547664
253	0x3fb1a4088e611185	0.06890920139364283
254	0x3f9c5adcbfeef222	0.027690362181362123
255	0x3fc4b91b9028c1e7	0.16189903773330558
